NumRecogWeb/model_data.pt (torch, 637691 bytes, 4 tensors)

fc1.weight f4 [200, 784]
0	0xbb840358	-0.004028719
1	0xbc3fe2e0	-0.011711806
2	0x3ca7ace2	0.02046818
3	0xbc10679c	-0.008813765
4	0xbccc1a85	-0.02491499
5	0xba15fbc0	-0.00057214126
6	0xbcdb19ce	-0.026745703
7	0xbca318da	-0.019909311
8	0xbca09ef3	-0.019607043
9	0x3b459a70	0.0030151866
10	0xbc3256bc	-0.010884937
11	0x3b1fb630	0.0024370067
12	0xbd1b7fab	-0.03796355
13	0xbc874358	-0.016511604
14	0xbc8a1bd0	-0.016858965
15	0xbd112091	-0.03543145
16	0x3d0efa31	0.03490657
17	0xbb7b9760	-0.0038389787
18	0xbc0b645c	-0.008507814
19	0x3bd86a48	0.0066044666
20	0x3caea0ba	0.021316875
21	0x3c8c10f4	0.017097928
22	0x3d049d6b	0.032376688
23	0x3c60c1e8	0.013718106
24	0xbc9f8300	-0.019471645
25	0x3cc1e5de	0.02366918
26	0x3c69b578	0.014264457
27	0x3c89d32c	0.016824327
28	0xbc8465fc	-0.016161911
29	0x3c6f57c0	0.014608324
30	0xbbb51930	-0.005526684
31	0x3c646e54	0.01394232
32	0x3d092ded	0.033491064
33	0x3b7991d0	0.0038081296
34	0x3c5bb8b8	0.01341074
35	0x3c334500	0.010941744
36	0xbcc7f6aa	-0.02440961
37	0xbd072762	-0.032996543
38	0xbcf6cc81	-0.030126812
39	0x3cd6069a	0.026126195
40	0xbc1b4060	-0.009475797
41	0x3c89b928	0.016811922
42	0xbc4a9940	-0.012365639
43	0xbcab2cb0	-0.020895332
44	0xbbbb0f5c	-0.005708618
45	0xbc3c1546	-0.011479681
46	0xbcc4f35c	-0.024041824
47	0x3ca6d4cc	0.020365141
48	0xbcfe633a	-0.031053174
49	0xbd0691b0	-0.032853782
50	0xbc8288f7	-0.01593445
51	0xbccb9afc	-0.024854176
52	0xbcb5809c	-0.022156052
53	0x3cf3869e	0.029727276
54	0x3c2212d4	0.009892184
55	0xbb223fa0	-0.0024757162
56	0xbc5bc68a	-0.013414035
57	0x3cdfaaca	0.027303118
58	0x3c9bd952	0.019024525
59	0x3c5ccc88	0.013476498
60	0x3ca6aa18	0.020344779
61	0xbc8f82c7	-0.017518414
62	0xbb29ab90	-0.0025889613
63	0xbccb9b5a	-0.02485435
64	0x3cf2efc6	0.029655349
65	0x3c744e39	0.014911228
66	0x3c313531	0.0108159045
67	0xb9a83280	-0.00032081082
68	0xbd0ab02b	-0.033859413
69	0x3bff32d0	0.0077880397
70	0xbcd18a7c	-0.02557873
71	0x3c14b6f1	0.00907682
72	0x3c99184c	0.018688343
73	0x3c85566c	0.01627656
74	0xbb0fbb80	-0.0021931827
75	0x3d02adab	0.031903904
76	0x3c7881b8	0.015167646
77	0x3d120d07	0.035656955
78	0xb90a7700	-0.00013205037
79	0xbba4a764	-0.0050248373
80	0xba8597a0	-0.0010192282
81	0xba8bf360	-0.001067739
82	0xbc02464a	-0.0079513285
83	0xbb15f8a0	-0.0022883788
84	0x3cab8f4c	0.020942353
85	0xb8d56600	-0.000101756305
86	0xbd02f4a6	-0.031971596
87	0xbbf1d470	-0.007380061
88	0xbd0f3703	-0.034964573
89	0xbbc30c54	-0.0059523974
90	0xbc61012e	-0.013733191
91	0x3c94aed8	0.018149778
92	0x3ceb6322	0.028733794
93	0x3cdc51ce	0.026894476
94	0x3c993f0a	0.018706817
95	0xbc8ba2fc	-0.01704549
96	0xbcc06608	-0.023486152
97	0x3b9ebf28	0.004844565
98	0xbd0bc780	-0.034125805
99	0xbbc87916	-0.00611795
100	0x3cb71bfc	0.022352211
101	0xbcc59cda	-0.024122644
102	0x3ce11646	0.027476441
103	0x3cd5e93e	0.026112195
104	0x3d02ca5f	0.031931277
105	0x3d0c876b	0.034308832
106	0xbb8480d0	-0.004043676
107	0x3c8dad2c	0.017294489
108	0x3a203ec0	0.0006112866
109	0x3cc215ec	0.023692094
110	0x3c7b7938	0.015348725
111	0xbcea564c	-0.028605603
112	0xbbb5b924	-0.005545752
113	0xbb4fcf30	-0.0031709187
114	0x3cea8fd6	0.02863304
115	0x3c2b6a80	0.010462403
116	0xbb7ba520	-0.0038397983
117	0x3cca8da8	0.02472575
118	0xbc58a1ca	-0.013222167
119	0x3cef9b96	0.029248994
120	0x3c901f03	0.017592913
121	0xbb76d3bb	-0.0037662822
122	0x3d00ecb0	0.031475723
123	0xbc589855	-0.013219913
124	0xbb9a7932	-0.0047141546
125	0x3c651260	0.013981432
126	0x3b80ab0e	0.0039266413
127	0xbcfee165	-0.031113336
128	0x3cad6a5a	0.021168876
129	0x3bc0bc78	0.005881842
130	0x3b360809	0.0027775785
131	0xbcad93ae	-0.021188583
132	0xbc570492	-0.013123648
133	0xbcd9a6bc	-0.026568763
134	0x3b9de8d0	0.004819013
135	0x3c385ea0	0.011253029
136	0xbc52793c	-0.012846287
137	0x3bc62de8	0.006047953
138	0xbc1a326e	-0.009411437
139	0xbc042432	-0.00806527
140	0xbce97375	-0.028497437
141	0x39a61800	0.0003167987
142	0x3cd5bafa	0.026090134
143	0x3c97b6b8	0.018519744
144	0xbc81891a	-0.015812445
145	0x3c6f21d8	0.014595471
146	0x3bc9f880	0.0061636567
147	0xbba3c4dc	-0.0049978327
148	0xbccefe57	-0.025267763
149	0x3bd3b752	0.0064610625
150	0x3c2dbd21	0.010604174
151	0xbcb8b957	-0.022549314
152	0x3c9192fa	0.01777028
153	0x3bf9c02e	0.0076217866
154	0x3cb2446e	0.021761145
155	0xbd124dd2	-0.035718746
156	0xbd0e56f5	-0.034750897
157	0xbc5ad6bc	-0.013356861
158	0x3c8cffd2	0.017211828
159	0x3cdfb3b2	0.027307365
160	0x3c2b09e8	0.010439374
161	0xbb6d6ed0	-0.003622938
162	0x3ccaa79c	0.024738126
163	0xbcb1e283	-0.021714455
164	0xbc5cb526	-0.0134709235
165	0x3d027b97	0.031856146
166	0x3ba3a010	0.004993446
167	0x3c966616	0.018359225
168	0x3cbabb8c	0.022794507
169	0x3cc9c70c	0.024631046
170	0xbcec5581	-0.028849365
171	0xbc83ec65	-0.016103933
172	0xbc803a3a	-0.015652765
173	0xbca087a0	-0.019595921
174	0x3bedd250	0.007257737
175	0x3ae1bf88	0.0017223218
176	0xbc94bd8c	-0.01815679
177	0x3cd1691b	0.025562814
178	0x3bc980bc	0.0061493795
179	0xbc8b714d	-0.0170218
180	0xbd36eabd	-0.044657458
181	0xba727540	-0.0009249039
182	0xbc93bdc9	-0.018034833
183	0xbc5af75a	-0.013364637
184	0xbc5144d8	-0.012772761
185	0x3b5242f0	0.0032083355
186	0x3c93b3fa	0.018030155
187	0xbcfd2263	-0.030900186
188	0xbc5d5bbc	-0.013510641
189	0x3b7a04a0	0.003814973
190	0x3c4283c4	0.011872236
191	0x3cbc2978	0.022968993
192	0xbd04b752	-0.03240139
193	0xbc90eee3	-0.017692035
194	0xbc8effd3	-0.01745597
195	0x3c1dc4a8	0.009629406
196	0x3af8a900	0.0018971264
197	0x390e6500	0.000135798
198	0xbc1a087c	-0.009401437
199	0x3cc34d1e	0.023840483
200	0x3cce6802	0.02519608
201	0x3c419760	0.011815876
202	0x3d03d68f	0.03218704
203	0xbcb523e3	-0.022111839
204	0x3c6c177b	0.014409895
205	0x3b957cbb	0.004561988
206	0x3c8e4c1c	0.017370276
207	0x3c3951f8	0.011311047
208	0xbd123244	-0.03569247
209	0xbc539270	-0.012913331
210	0xbc47f5c1	-0.012204588
211	0xbb9c0634	-0.0047614817
212	0x3c9f6c41	0.0194608
213	0x3d144cc5	0.036206026
214	0x3c13c64d	0.009019447
215	0xbce4095e	-0.027836498
216	0xbc840d6e	-0.016119685
217	0x3bd6b1b8	0.0065519474
218	0xbcfdeea1	-0.030997576
219	0xbd086b6d	-0.033305574
220	0xbd0fbaea	-0.035090365
221	0xbc94bc4c	-0.018156193
222	0xbcf703b8	-0.03015314
223	0xbc439dee	-0.011939509
224	0xbc2a7492	-0.010403769
225	0x3ccb734c	0.024835251
226	0x3a295280	0.0006459132
227	0x3c7813d4	0.015141446
228	0xbc39fcbc	-0.0113517605
229	0x3ce92202	0.028458599
230	0x3bf4a3ca	0.0074658142
231	0xbd024557	-0.03180441
232	0x3cb2517b	0.021767369
233	0xbcad668e	-0.021167066
234	0xbc929e95	-0.017897883
235	0xbbce04a1	-0.006287173
236	0xbcc6eb28	-0.024282053
237	0xbc91c5e0	-0.01779455
238	0x3cb82eaa	0.022483189
239	0x3b99e5b5	0.0046965727
240	0x3c8462e4	0.016160436
241	0x3cc73883	0.02431894
242	0x3cfbc7e7	0.03073497
243	0xbc2e57c0	-0.010641038
244	0x3d1236e7	0.03569689
245	0xbce4add3	-0.027914917
246	0x3c128428	0.008942641
247	0x3d0e9b69	0.03481618
248	0xbcf2b095	-0.029625216
249	0xbc571c0a	-0.013129244
250	0xbbd6a630	-0.006550573
251	0x38149c00	3.5431236e-05
252	0xbd11f02b	-0.035629433
253	0x3cecd0ba	0.028908122
254	0xb71ad000	-9.227544e-06
255	0x3c8d0a42	0.017216805

fc1.bias f4 [200]
0	0xbbe3fe14	-0.0069577787
1	0x3d201045	0.039078016
2	0x3bb66819	0.0055666086
3	0x3cb2443b	0.02176105
4	0x3ca1572a	0.019694883
5	0xbc24a576	-0.010049215
6	0xbd2e4bbc	-0.042552695
7	0x3d6c3a0d	0.05767255
8	0x3c551908	0.013006456
9	0x3ce48af0	0.027898282
10	0xbc8f6d7d	-0.017508263
11	0x3d876a87	0.06612115
12	0xbd3f1e36	-0.04665967
13	0x3b7f14d1	0.003892232
14	0xbdcb7fdc	-0.099364966
15	0x3d69b3fd	0.057056416
16	0x3d0d64df	0.034520026
17	0x3c271620	0.010198146
18	0x3bfe3ed5	0.007758955
19	0x3ce1c262	0.02755851
20	0x3cf91382	0.03040481
21	0x3cab6097	0.020920081
22	0xbcaf984b	-0.021434924
23	0xba211682	-0.00061450165
24	0x3b0a16a5	0.0021070626
25	0x3c7a3313	0.015270966
26	0xbca4ae32	-0.020102594
27	0x3d86e244	0.065861255
28	0x3b9a3649	0.0047061783
29	0x3d830a3b	0.06398436
30	0x3d8d32a7	0.06894427
31	0xbbb1fc2f	-0.005431674
32	0x3d1b93fb	0.037982922
33	0xbc6c08ce	-0.014406396
34	0x3ddc4b23	0.10756519
35	0x3c5e5d6f	0.013572081
36	0x3c0c1a37	0.008551172
37	0xbc14f6d2	-0.00909205
38	0x3d852b9e	0.0650246
39	0xbcfe009b	-0.031006148
40	0x3dbfa4cd	0.09357605
41	0x3db19321	0.08670641
42	0x3d62f368	0.05540791
43	0xbd1390f6	-0.036026917
44	0xbb5c2439	-0.0033590926
45	0x3da42528	0.080148995
46	0x3dc9c0a6	0.09851198
47	0xbc89239f	-0.016740618
48	0xbc902e9e	-0.017600354
49	0xbd32bd05	-0.043637294
50	0x3d1c5bc2	0.038173445
51	0x3df16c58	0.11788243
52	0x3d7faa29	0.062418137
53	0xba20c66d	-0.00061330834
54	0x3d4c683d	0.049904097
55	0xbceff0a9	-0.02928956
56	0x3c89dffb	0.016830435
57	0x3dcc9872	0.09990014
58	0x3d85b258	0.06528157
59	0x3d3300e7	0.043702032
60	0xbc47c5d6	-0.012193164
61	0xbc4e3371	-0.012585507
62	0xbd380e11	-0.04493529
63	0xbe16b410	-0.14717126
64	0x3d270cd3	0.040783715
65	0xbbab0dee	-0.0052201664
66	0x3d79ab62	0.06095446
67	0x3b281e9b	0.0025653008
68	0xbcdd2e2b	-0.026999554
69	0xbd1e333f	-0.03862309
70	0x3d4c4073	0.04986615
71	0xbd18776e	-0.037223272
72	0xbc10a68a	-0.0088287685
73	0xbd299f77	-0.041411843
74	0xbd1adb67	-0.037806895
75	0x3c80888b	0.015690109
76	0x3d39dbe3	0.045375716
77	0xbd12f369	-0.035876665
78	0x3bc2295f	0.005925342
79	0x3bc07589	0.0058733863
80	0xbd0dd87d	-0.034630287
81	0xbd123704	-0.035697
82	0x3cd4cf75	0.02597783
83	0xbd4abddd	-0.049497474
84	0xbc52905a	-0.012851799
85	0xbc083b78	-0.00831496
86	0xbc0a798e	-0.008451832
87	0x3d545af1	0.05184454
88	0x3c36fc43	0.011168542
89	0xbd77cb4e	-0.06049662
90	0xbbf973f9	-0.007612702
91	0x3d848c05	0.06472019
92	0xbcf11501	-0.02942896
93	0xbca3e937	-0.020008666
94	0xbce35185	-0.027748832
95	0x3de09a80	0.109669685
96	0xbd2b7b25	-0.041865487
97	0x3d03a2fa	0.03213785
98	0x3d549906	0.051903747
99	0x3c92962c	0.017893873
100	0xbcbe1959	-0.023205446
101	0xbc9f1099	-0.019417094
102	0x3dba34b8	0.090920866
103	0x3dc6c15b	0.097048484
104	0xbcd8ee77	-0.026480896
105	0xbcee4e39	-0.029090034
106	0x3db4a629	0.08820755
107	0x3d3ca946	0.04605987
108	0xbd0bc84d	-0.03412657
109	0x3d4efd90	0.050534785
110	0xbd183b43	-0.03716589
111	0x3cde2ffc	0.02712249
112	0xbe908ed8	-0.2823398
113	0x3c246f1e	0.010036258
114	0xbcc0b9cd	-0.023526097
115	0x3d89be31	0.06725729
116	0x3d77a94b	0.060464185
117	0xbd34c84e	-0.044136338
118	0xbd459d50	-0.048245728
119	0x3d234703	0.039862644
120	0x3cde4fce	0.027137663
121	0x3c913f84	0.017730482
122	0xbe73a3fb	-0.23793022
123	0xbd8790ea	-0.06619437
124	0x3c79d9aa	0.015249649
125	0x3c4ccec1	0.012500466
126	0xbd614347	-0.0549958
127	0x3d4bba8f	0.049738463
128	0xbcd4bf46	-0.025970113
129	0xbce16125	-0.027512142
130	0xbcdb676d	-0.026782716
131	0xb98096fa	-0.0002452655
132	0x3d050761	0.03247774
133	0x3d9fcf68	0.078032315
134	0x3cd03f32	0.025420759
135	0x3d80052f	0.06250989
136	0x3cf7105a	0.030159164
137	0x3d49dbe3	0.049281966
138	0x3ce101f0	0.027466744
139	0x3ce14c99	0.027502345
140	0xbc909761	-0.017650308
141	0xbd060320	-0.032717824
142	0xbcb4d6e4	-0.022075124
143	0x3d7bf5d5	0.06151374
144	0x3d3f3bee	0.046688013
145	0x3d1f46e0	0.03888595
146	0x3c7466e7	0.014917112
147	0xbd1fa0b3	-0.038971614
148	0x3d50dd8f	0.050992545
149	0xbb1324a7	-0.0022452266
150	0x3d2de3d0	0.042453587
151	0xbcc720eb	-0.024307689
152	0x3ba1654e	0.0049254065
153	0x3cefd4af	0.02927622
154	0x3d5a521e	0.05330097
155	0xbd4d94f1	-0.05019087
156	0xbb8d66d2	-0.0043152357
157	0xbbd64268	-0.006538678
158	0xbc35dfb1	-0.0111006955
159	0x3abaad38	0.0014242297
160	0x3cc73ce4	0.024321027
161	0xbab11730	-0.0013510939
162	0xbc8cd26d	-0.017190183
163	0x3d4455ea	0.047933497
164	0xbd5273ac	-0.051379845
165	0x3d7f1aee	0.06228154
166	0x3de0de9d	0.1097996
167	0xbd2fc781	-0.04291487
168	0xbc71b508	-0.014752634
169	0x3d2307b3	0.039802264
170	0xbc2fd657	-0.010732255
171	0xbd49e6af	-0.049292263
172	0x3ce673d7	0.028131409
173	0xbba38238	-0.0049898885
174	0x3ca1051a	0.019655753
175	0x3cd8839a	0.02642994
176	0x3cba131d	0.022714192
177	0xbd1c4f44	-0.03816153
178	0x3c5fe720	0.013665944
179	0x3d99c7f8	0.07508844
180	0xbbb0357b	-0.005377469
181	0xbcd05687	-0.025431884
182	0xbd6c31cc	-0.057664678
183	0x3cb94267	0.02261467
184	0x3ce2faf0	0.027707547
185	0x3d816833	0.063187025
186	0xbbb7ad27	-0.005605358
187	0x3d17f836	0.037101947
188	0x3db64b62	0.08901097
189	0xbb708ba2	-0.0036704321
190	0x3c2b07f6	0.01043891
191	0xbd07a36f	-0.033114847
192	0xbc8300e2	-0.015991632
193	0xbd891d10	-0.06694996
194	0x3c86cb99	0.016454505
195	0xbe7bf07a	-0.24603453
196	0x3b1f27ac	0.002428512
197	0x3d09c9c3	0.03363968
198	0x3d504cef	0.05085462
199	0x3d3f4201	0.046693806

fc2.weight f4 [10, 200]
0	0xbc6db494	-0.014508385
1	0xbe16acf9	-0.14714421
2	0xbd3f2ecd	-0.046675492
3	0xbd80001a	-0.06250019
4	0xbdb98c0e	-0.090599164
5	0x3cc071b1	0.023491712
6	0xbdec14c8	-0.11527401
7	0xbde3a9df	-0.11116385
8	0x3dc9690f	0.098344915
9	0xbd99f2f6	-0.07517044
10	0xbe1a773d	-0.15084548
11	0x3e12dbb3	0.14341621
12	0xbd8e6159	-0.06952161
13	0xbdf9105f	-0.12161326
14	0x3dfb0b77	0.12258046
15	0xbd23a708	-0.039954215
16	0xbe219c45	-0.15782268
17	0x3e442f80	0.19158745
18	0xbd8f159f	-0.06986546
19	0xbd8afdeb	-0.06786712
20	0xbd12ff92	-0.035888262
21	0xbe943eac	-0.28954065
22	0xbdf0d511	-0.11759389
23	0xbe5853b9	-0.21125688
24	0xbd990f00	-0.07473564
25	0x3cec1f29	0.028823452
26	0xbd5b9a53	-0.053613972
27	0xbe57ba4b	-0.21067159
28	0x3c84581f	0.0161553
29	0xbe1ec566	-0.15504989
30	0xbe568bb7	-0.20951734
31	0x3ca219f1	0.01978776
32	0x3eac3017	0.3363044
33	0xbb5b9f0a	-0.0033511543
34	0xbe2a0d9b	-0.16606753
35	0xbd036502	-0.03207875
36	0x3b65a5e4	0.0035041505
37	0xbdc5ef10	-0.09664738
38	0xbe3b52e5	-0.1829334
39	0xbdc350b6	-0.09536879
40	0x3dcdf477	0.100563936
41	0x3d509063	0.050918948
42	0xbe28353e	-0.1642656
43	0xbd1c8159	-0.038209293
44	0xbde74522	-0.11292483
45	0xbebc5c26	-0.36789054
46	0xbe12d92f	-0.14340661
47	0x3bca1bcf	0.006167866
48	0xbe408b60	-0.18803167
49	0xbaf48dac	-0.0018657944
50	0xbe2a6978	-0.16641796
51	0xbe6709af	-0.22562288
52	0xbe10fab3	-0.14158134
53	0xbe19da52	-0.15024689
54	0xbc17b722	-0.009259971
55	0xbd6b345f	-0.05742299
56	0xbde50d5b	-0.11184188
57	0xbe4935bb	-0.19649403
58	0xbe4d031b	-0.20020716
59	0x3d210d8c	0.03931956
60	0x3ddaf5f3	0.10691442
61	0x3c7b7627	0.015347994
62	0xbddf2eca	-0.10897596
63	0x3e1a4df5	0.15068801
64	0xbdf3cab2	-0.119038954
65	0xbe36a1b6	-0.17835125
66	0xbe0b53d1	-0.13606192
67	0x3c701abc	0.0146548115
68	0x3cf4e54c	0.029894494
69	0xbce02f45	-0.02736629
70	0xbea36a52	-0.31917053
71	0xbd168f44	-0.036757722
72	0xbba66a56	-0.005078594
73	0xbd78c68d	-0.060736228
74	0xbdeac548	-0.1146341
75	0x3e2a4ade	0.16630122
76	0xbe32f8f1	-0.17477776
77	0xbd92329b	-0.071385585
78	0xbd2ba9d6	-0.041910015
79	0x3e354e5e	0.17705676
80	0xbd562d01	-0.052289013
81	0xbd8bf790	-0.06834328
82	0xbe784162	-0.24243692
83	0xbcacfa99	-0.021115588
84	0xbbed2c74	-0.0072379652
85	0xbe1718df	-0.14755581
86	0xbe0c2e26	-0.13689479
87	0xbdfe1da2	-0.12407996
88	0xbdad3ac6	-0.08458476
89	0xbe1ecf0f	-0.15508674
90	0xbe5ef000	-0.2177124
91	0x3d5e482b	0.054268043
92	0xbd472dfa	-0.04862783
93	0xbd93cbf5	-0.07216636
94	0xbc8deb84	-0.017324217
95	0xbe8f5825	-0.27996936
96	0xbd24b41e	-0.040210836
97	0x3e193750	0.14962506
98	0xbe56cac2	-0.20975783
99	0xbd269b29	-0.040675316
100	0x3d1dcd54	0.038525894
101	0x3c3eeb14	0.011652727
102	0xbe453818	-0.1925968
103	0xbec1e949	-0.37873295
104	0xbe30f7f0	-0.1728208
105	0xbddcab93	-0.10774913
106	0xbc7be54f	-0.015374496
107	0xbd2b188b	-0.041771453
108	0xbe255bd2	-0.16148308
109	0x3dc860e8	0.097841084
110	0xbdfb8401	-0.12281037
111	0xbe141a5a	-0.14463177
112	0xbd140c76	-0.036144696
113	0xbdf0a396	-0.117499515
114	0xbe39fece	-0.18163607
115	0x3dc1821c	0.094486445
116	0xbe3a2f7e	-0.1818218
117	0xbd6a25ed	-0.057165075
118	0xbc9681a7	-0.01837237
119	0xbda40574	-0.080088526
120	0x3deb22f4	0.11481276
121	0x3c827379	0.015924202
122	0xbd2867b8	-0.04111454
123	0xbe0f9514	-0.14021713
124	0x3d35b03f	0.044357534
125	0xbd7d1046	-0.061783098
126	0xbdab7a2e	-0.08372913
127	0xbe488dc2	-0.19585326
128	0xbdc43436	-0.09580271
129	0xbe32e072	-0.17468432
130	0xbd3ded4d	-0.046368886
131	0xbdb8d058	-0.090241134
132	0xbe02208f	-0.12707733
133	0xbea2c87f	-0.3179359
134	0xbe1a4ba7	-0.15067922
135	0x3db1d1be	0.08682583
136	0x3bc09490	0.005877085
137	0xbe0f92ca	-0.1402084
138	0x3e65ee8f	0.22454284
139	0xbdd29477	-0.10282224
140	0xbdef8dee	-0.11696993
141	0xbe35b064	-0.17743069
142	0xbd75ff9e	-0.06005823
143	0x3d315b2f	0.04329985
144	0xbe69a740	-0.22817707
145	0x3d3e02fe	0.046389572
146	0xbe26d2a2	-0.16291288
147	0xbb1ac521	-0.0023616033
148	0x3e15d3c4	0.14631563
149	0xbdbf61f7	-0.09344857
150	0x3d197090	0.037460864
151	0xbdad8101	-0.08471871
152	0xbe2cd8ba	-0.1687955
153	0x3daa9f50	0.08331168
154	0xbdf4d3b7	-0.11954444
155	0xbd690a6d	-0.05689471
156	0xbd264497	-0.040592756
157	0x3d70c30d	0.058779765
158	0xbe1acb2e	-0.1511657
159	0xbe1e6fca	-0.15472332
160	0xbdc4e754	-0.09614435
161	0xbe369132	-0.17828825
162	0xbd9bb2fe	-0.076024994
163	0xbe1686b7	-0.14699827
164	0xbe0b50af	-0.13604997
165	0xbe33385f	-0.17501973
166	0xbe866a0a	-0.26252776
167	0x3cee07f0	0.02905652
168	0xbe4eae9a	-0.20183793
169	0xbc454cd6	-0.012042245
170	0x3d4e3627	0.050344612
171	0xbd78a935	-0.060708243
172	0xbc0a380c	-0.008436214
173	0xbd4ef1d3	-0.05052359
174	0xbd73e30f	-0.05954271
175	0xbd44be3f	-0.048032995
176	0x3e233f0c	0.15942019
177	0xbab0de8d	-0.001349406
178	0xbd539792	-0.05165822
179	0xbe19380f	-0.14962791
180	0xbd3e05fa	-0.04639242
181	0xbd585ba7	-0.05282178
182	0xbd1df7be	-0.038566343
183	0xbde15643	-0.11002781
184	0xbe057c46	-0.13035688
185	0x3cbf46f6	0.023349266
186	0xbe0e33d7	-0.13886963
187	0xbe0d39c3	-0.13791566
188	0x3d73090c	0.0593348
189	0xbe64a9d9	-0.22330417
190	0x3d6afcde	0.05737006
191	0xbdbd4cf4	-0.09243193
192	0xbd5053eb	-0.05086128
193	0xbd6db04f	-0.05802947
194	0xbd8dc14f	-0.06921636
195	0xbcda74b4	-0.026666977
196	0xbdab6639	-0.08369107
197	0x3d152268	0.036409765
198	0x3e4aa95f	0.19791172
199	0x3dbe2351	0.0928408
200	0xbca05600	-0.019572258
201	0xbde96029	-0.11395294
202	0x3d83ce7a	0.06435867
203	0xbc6b8ab3	-0.01437633
204	0xbe1ef69c	-0.15523762
205	0xbc90fdb2	-0.017699096
206	0x3c9d498c	0.019200109
207	0xbc35a6d0	-0.0110871345
208	0xbe8bddce	-0.2731766
209	0xbc0d8fe2	-0.008640261
210	0x3cc41ca8	0.023939446
211	0xbe8ae5c1	-0.27128413
212	0xbdf1fd99	-0.11815948
213	0xbdc043e1	-0.09387947
214	0xbdcdb7c6	-0.100448176
215	0xbe4196f4	-0.1890524
216	0xbdcea87a	-0.10090728
217	0xbe640c60	-0.22270346
218	0xbd42391d	-0.04741775
219	0x3d99b884	0.07505897
220	0x3d4afada	0.049555637
221	0xbdc640f2	-0.09680356
222	0x3c5b6119	0.013389849
223	0xbe6572f9	-0.2240714
224	0x3c915668	0.017741397
225	0xbd3013d0	-0.042987645
226	0xbc7a64ea	-0.015282849
227	0x3d6ede25	0.058317322
228	0x3d08f3bc	0.03343557
229	0xbdf05109	-0.11734206
230	0x3e5fcd8b	0.21855752
231	0xbd4b5bd4	-0.04964812
232	0xbe826e7f	-0.25474927
233	0xbd8c729a	-0.06857796
234	0xbe19ca5c	-0.150186
235	0xbd94b16b	-0.07260402
236	0x3d1b03ee	0.037845545
237	0xbdf6fa46	-0.120594546
238	0x3e1868fb	0.14883797
239	0x3cde3112	0.027123008
240	0xbe59cb38	-0.21268928
241	0xbe19ab55	-0.15006764
242	0x3e160862	0.14651635
243	0xbd466b56	-0.048442207
244	0xbd742b3b	-0.05961154
245	0xbca2f3f0	-0.01989171
246	0xbeccf4fa	-0.40030652
247	0x3c8b022d	0.01696881
248	0xbe0804d1	-0.13283087
249	0x3cf9a0c7	0.030472172
250	0x3ceba17c	0.028763525
251	0x3ce31a93	0.027722633
252	0xbc1a55af	-0.009419843
253	0xbda3c344	-0.07996228
254	0xbe64f462	-0.2235885
255	0xbd07d6e7	-0.03316393

fc2.bias f4 [10]
0	0xbf21ca86	-0.6319965
1	0xbd9fb59e	-0.077983126
2	0xbe7b015c	-0.24512237
3	0xbed0b672	-0.40764195
4	0xbe8db066	-0.27673644
5	0xbe03475d	-0.12820192
6	0xbe81802b	-0.25293097
7	0xbd9b8e30	-0.075954795
8	0xbec48478	-0.38382316
9	0xbdf5d6f9	-0.120038934
